_________________________________________________________________
Layer (type)                 Output Shape              Param #   
=================================================================
conv2d (Conv2D)              (None, 31, 31, 64)        832       
_________________________________________________________________
max_pooling2d (MaxPooling2D) (None, 15, 15, 64)        0         
_________________________________________________________________
batch_normalization (BatchNo (None, 15, 15, 64)        256       
_________________________________________________________________
conv2d_1 (Conv2D)            (None, 14, 14, 128)       32896     
_________________________________________________________________
max_pooling2d_1 (MaxPooling2 (None, 7, 7, 128)         0         
_________________________________________________________________
batch_normalization_1 (Batch (None, 7, 7, 128)         512       
_________________________________________________________________
conv2d_2 (Conv2D)            (None, 6, 6, 256)         131328    
_________________________________________________________________
max_pooling2d_2 (MaxPooling2 (None, 3, 3, 256)         0         
_________________________________________________________________
batch_normalization_2 (Batch (None, 3, 3, 256)         1024      
_________________________________________________________________
flatten (Flatten)            (None, 2304)              0         
_________________________________________________________________
dense (Dense)                (None, 128)               295040    
_________________________________________________________________
dropout (Dropout)            (None, 128)               0         
_________________________________________________________________
batch_normalization_3 (Batch (None, 128)               512       
_________________________________________________________________
dense_1 (Dense)              (None, 10)                1290      
=================================================================
Total params: 463,690
Trainable params: 462,538
Non-trainable params: 1,152
_________________________________________________________________
Epoch 1/10
  128/50000 [..............................] - ETA: 14:55 - loss: 2.9038 - acc: 0.1328
…
