_________________________________________________________________
Layer (type)                 Output Shape              Param #   
=================================================================
conv2d (Conv2D)              (None, 30, 30, 64)        1792      
_________________________________________________________________
max_pooling2d (MaxPooling2D) (None, 15, 15, 64)        0         
_________________________________________________________________
batch_normalization (BatchNo (None, 15, 15, 64)        256       
_________________________________________________________________
conv2d_1 (Conv2D)            (None, 13, 13, 128)       73856     
_________________________________________________________________
max_pooling2d_1 (MaxPooling2 (None, 6, 6, 128)         0         
_________________________________________________________________
batch_normalization_1 (Batch (None, 6, 6, 128)         512       
_________________________________________________________________
conv2d_2 (Conv2D)            (None, 4, 4, 256)         295168    
_________________________________________________________________
max_pooling2d_2 (MaxPooling2 (None, 2, 2, 256)         0         
_________________________________________________________________
batch_normalization_2 (Batch (None, 2, 2, 256)         1024      
_________________________________________________________________
flatten (Flatten)            (None, 1024)              0         
_________________________________________________________________
dense (Dense)                (None, 128)               131200    
_________________________________________________________________
dropout (Dropout)            (None, 128)               0         
_________________________________________________________________
batch_normalization_3 (Batch (None, 128)               512       
_________________________________________________________________
dense_1 (Dense)              (None, 10)                1290      
=================================================================
Total params: 505,610
Trainable params: 504,458
Non-trainable params: 1,152
_________________________________________________________________
Epoch 1/10
  128/50000 [..............................] - ETA: 11:10 - loss: 3.0417 - acc: 0.0625
…
